…
                  'criterion': 'nn.CrossEntropyLoss',
                  'epochs': 100,
                  'grad_clip': 2.0,
                  'lr': 0.00011396995431147184,
                  'optimizer': 'optim.AdamW'},
 'pool1_time': 3,
 'pool2_time': 8,
 'scheduler': {'factor': 0.649590522222718,
               'min_lr': 3.0570412165705003e-07,
               'mode': 'min',
               'monitor': 'val_loss',
               'name': 'torch.optim.lr_scheduler.ReduceLROnPlateau',
               'patience': 6,
               'step_mode': 'plateau',
               'verbose': True}}
Model Architecture:
 EMGModel(
  (firstConv): Sequential(
    (0): Conv2d(1, 128, kernel_size=(1, 24), stride=(1, 1), padding=(0, 12), bias=False)
    (1): BatchNorm2d(128, eps=1e-05, momentum=0.1, affine=True, track_running_stats=True)
  )
  (depthwiseConv): Sequential(
    (0): Conv2d(128, 2048, kernel_size=(8, 1), stride=(1, 1), groups=128, bias=False)
    (1): BatchNorm2d(2048, eps=1e-05, momentum=0.1, affine=True, track_running_stats=True)
    (2): ELU(alpha=1.0)
    (3): AvgPool2d(kernel_size=(1, 3), stride=(1, 3), padding=0)
    (4): Dropout(p=0.138, inplace=False)
  )
  (separableConv): Sequential(
    (0): Conv2d(2048, 128, kernel_size=(1, 16), stride=(1, 1), padding=(0, 8), bias=False)
    (1): BatchNorm2d(128, eps=1e-05, momentum=0.1, affine=True, track_running_stats=True)
    (2): ELU(alpha=1.0)
    (3): AvgPool2d(kernel_size=(1, 8), stride=(1, 8), padding=0)
    (4): Dropout(p=0.138, inplace=False)
  )
  (extra_stack): Sequential(
    (0): SepTemporalBlock(
      (dw): Conv2d(128, 128, kernel_size=(1, 7), stride=(1, 1), padding=(0, 3), groups=128, bias=False)
      (pw): Conv2d(128, 128, kernel_size=(1, 1), stride=(1, 1), bias=False)
      (bn): BatchNorm2d(128, eps=1e-05, momentum=0.1, affine=True, track_running_stats=True)
      (act): ELU(alpha=1.0)
      (do): Dropout(p=0.138, inplace=False)
    )
  )
  (time_adapt): AdaptiveAvgPool2d(output_size=(1, 8))
  (fc_norm): BatchNorm1d(1024, eps=1e-05, momentum=0.1, affine=True, track_running_stats=True)
  (classifier): Linear(in_features=1024, out_features=9, bias=True)
)
Training Start Time: 2025-10-16_08-58-00

[SCHEDULER] Enabled: ReduceLROnPlateau, step_mode=plateau, monitor=val_loss
[SCHEDULER] kwargs: {'factor': 0.649590522222718, 'min_lr': 3.0570412165705003e-07, 'mode': 'min', 'patience': 6, 'verbose': True}
[EARLY STOP] Enabled: monitor=val_loss, mode=min, patience=15, min_delta=0.00047912070773434816, burn_in=4, cooldown=4, restore_best=True
…
